…
utput_type":"stream","text":["\n","Build a model..\n","WARNING:tensorflow:From /usr/local/lib/python3.6/dist-packages/tensorflow/python/framework/op_def_library.py:263: colocate_with (from tensorflow.python.framework.ops) is deprecated and will be removed in a future version.\n","Instructions for updating:\n","Colocations handled automatically by placer.\n","_________________________________________________________________\n","Layer (type)                 Output Shape              Param #   \n","=================================================================\n","input_1 (InputLayer)         (None, 256, 256, 13)      0         \n","_________________________________________________________________\n","batch_normalization_1 (Batch (None, 256, 256, 13)      52        \n","_________________________________________________________________\n","activation_1 (Activation)    (None, 256, 256, 13)      0         \n","_________________________________________________________________\n","conv2d_1 (Conv2D)            (None, 256, 256, 64)      7552      \n","_________________________________________________________________\n","activation_2 (Activation)    (None, 256, 256, 64)      0         \n","_________________________________________________________________\n","conv2d_2 (Conv2D)            (None, 256, 256, 64)      36928     \n","_________________________________________________________________\n","activation_3 (Activation)    (None, 256, 256, 64)      0         \n","_________________________________________________________________\n","conv2d_3 (Conv2D)            (None, 256, 256, 64)      36928     \n","_________________________________________________________________\n","activation_4 (Activation)    (None, 256, 256, 64)      0         \n","_________________________________________________________________\n","conv2d_4 (Conv2D)            (None, 256, 256, 64)      36928     \n","_________________________________________________________________\n","activation_5 (Activation)    (None, 256, 256, 64)      0         \n","_________________________________________________________________\n","conv2d_5 (Conv2D)            (None, 256, 256, 64)      36928     \n","_________________________________________________________________\n","activation_6 (Activation)    (None, 256, 256, 64)      0         \n","_________________________________________________________________\n","conv2d_6 (Conv2D)            (None, 256, 256, 64)      36928     \n","_________________________________________________________________\n","activation_7 (Activation)    (None, 256, 256, 64)      0         \n","_________________________________________________________________\n","conv2d_7 (Conv2D)            (None, 256, 256, 64)      36928     \n","_________________________________________________________________\n","activation_8 (Activation)    (None, 256, 256, 64)      0         \n","_________________________________________________________________\n","conv2d_8 (Conv2D)            (None, 256, 256, 1)       577       \n","_________________________________________________________________\n","activation_9 (Activation)    (None, 256, 256, 1)       0         \n","=================================================================\n","Total params: 229,749\n","Trainable params: 229,723\n","Non-trainable params: 26\n","_________________________________________________________________\n","None\n","\n","Train the model..\n","WARNING:tensorflow:From /usr/local/lib/python3.6/dist-packages/tensorflow/python/ops/math_ops.py:3066: to_int32 (from tensorf
…
